Завантаження даних...
Завантажено тренувальних записів: 50000
Завантажено тестових записів: 10000
Очищення тексту...
Токенізація...
Побудова моделі LSTM...
Model: "sequential"
┏━━━━━━━━━━━━━━━━━━━━━━━━━━━━━━━━━┳━━━━━━━━━━━━━━━━━━━━━━━━┳━━━━━━━━━━━━━━━┓
┃ Layer (type)                    ┃ Output Shape           ┃       Param # ┃
┡━━━━━━━━━━━━━━━━━━━━━━━━━━━━━━━━━╇━━━━━━━━━━━━━━━━━━━━━━━━╇━━━━━━━━━━━━━━━┩
│ embedding (Embedding)           │ (None, 100, 128)       │     1,280,000 │
├─────────────────────────────────┼────────────────────────┼───────────────┤
│ lstm (LSTM)                     │ (None, 100, 128)       │       131,584 │
├─────────────────────────────────┼────────────────────────┼───────────────┤
│ dropout (Dropout)               │ (None, 100, 128)       │             0 │
├─────────────────────────────────┼────────────────────────┼───────────────┤
│ lstm_1 (LSTM)                   │ (None, 64)             │        49,408 │
├─────────────────────────────────┼────────────────────────┼───────────────┤
│ dropout_1 (Dropout)             │ (None, 64)             │             0 │
├─────────────────────────────────┼────────────────────────┼───────────────┤
│ dense (Dense)                   │ (None, 32)             │         2,080 │
├─────────────────────────────────┼────────────────────────┼───────────────┤
│ dense_1 (Dense)                 │ (None, 1)              │            33 │
└─────────────────────────────────┴────────────────────────┴───────────────┘
 Total params: 1,463,105 (5.58 MB)
 Trainable params: 1,463,105 (5.58 MB)
 Non-trainable params: 0 (0.00 B)
Початок навчання...
Epoch 1/7
782/782 ━━━━━━━━━━━━━━━━━━━━ 20s 22ms/step - accuracy: 0.5780 - loss: 0.6624 - val_accuracy: 0.5613 - val_loss: 0.6431
Epoch 2/7
782/782 ━━━━━━━━━━━━━━━━━━━━ 18s 22ms/step - accuracy: 0.6973 - loss: 0.5947 - val_accuracy: 0.7844 - val_loss: 0.4885
…
